Transformer(
  (TransformerEncoder): Encoder(
    (input_embedding): InputEmbedding(8014, 512)
    (position_encoding): PositionEncoding()
    (encoder_block): ModuleList(
      (0-7): 8 x EncoderLayer(
        (self_attention): MultiHeadAttention(
          (scale_dot_product_attention): ScaledDotProductAttention(
            (softmax): Softmax(dim=-1)
          )
          (w_q): Linear(in_features=512, out_features=512, bias=True)
          (w_k): Linear(in_features=512, out_features=512, bias=True)
          (w_v): Linear(in_features=512, out_features=512, bias=True)
          (linear): Linear(in_features=512, out_features=512, bias=True)
        )
        (drop_1): Dropout(p=0.2, inplace=False)
        (norm_1): LayerNorm()
        (ffn): FeedForward(
          (linear1): Linear(in_features=512, out_features=2048, bias=True)
          (linear2): Linear(in_features=2048, out_features=512, bias=True)
          (relu): ReLU()
          (dropout): Dropout(p=0.1, inplace=False)
        )
        (drop_2): Dropout(p=0.2, inplace=False)
        (norm_2): LayerNorm()
      )
    )
  )
  (TransformerDecoder): Decoder(
    (input_embedding): InputEmbedding(6191, 512)
    (position_encoding): PositionEncoding()
    (decoder_block): ModuleList(
      (0-7): 8 x DecoderLayer(
        (self_attention): MultiHeadAttention(
          (scale_dot_product_attention): ScaledDotProductAttention(
            (softmax): Softmax(dim=-1)
          )
          (w_q): Linear(in_features=512, out_features=512, bias=True)
          (w_k): Linear(in_features=512, out_features=512, bias=True)
          (w_v): Linear(in_features=512, out_features=512, bias=True)
          (linear): Linear(in_features=512, out_features=512, bias=True)
        )
        (drop_1): Dropout(p=0.2, inplace=False)
        (norm_1): LayerNorm()
        (cross_attention): MultiHeadAttention(
          (scale_dot_product_attention): ScaledDotProductAttention(
            (softmax): Softmax(dim=-1)
          )
          (w_q): Linear(in_features=512, out_features=512, bias=True)
          (w_k): Linear(in_features=512, out_features=512, bias=True)
          (w_v): Linear(in_features=512, out_features=512, bias=True)
          (linear): Linear(in_features=512, out_features=512, bias=True)
        )
        (ffn): FeedForward(
          (linear1): Linear(in_features=512, out_features=2048, bias=True)
          (linear2): Linear(in_features=2048, out_features=512, bias=True)
          (relu): ReLU()
          (dropout): Dropout(p=0.1, inplace=False)
        )
        (drop_2): Dropout(p=0.2, inplace=False)
        (norm_2): LayerNorm()
        (drop_3): Dropout(p=0.2, inplace=False)
        (norm_3): LayerNorm()
      )
    )
    (lm_header): Linear(in_features=512, out_features=6191, bias=True)
  )
)
----------------------------------------------------------------------
Epoch 1/30, Train Loss: 5.7288
Epoch 1/30, Validation Loss: 4.8433
Source: Ein Mann in einem blauen Hemd steht auf einer Leiter und putzt ein Fenster.
Translation: A man in a man in a man in a in a and a and a and a and a and a and a and a and a and a in a and a and a and a and a in a and .
…
